…
me":"Hannah Melzer","userId":"02268928399189718109"},"user_tz":-120},"id":"jNrds5QkR-uQ","outputId":"9811263e-5e60-401d-d9ce-dfe76f946017"},"outputs":[{"name":"stdout","output_type":"stream","text":["Model: \"model\"\n","_________________________________________________________________\n"," Layer (type)                Output Shape              Param #   \n","=================================================================\n"," input_1 (InputLayer)        [(None, 68, 68, 1)]       0         \n","                                                                 \n"," conv2d (Conv2D)             (None, 34, 34, 32)        544       \n","                                                                 \n"," conv2d_1 (Conv2D)           (None, 17, 17, 16)        8208      \n","                                                                 \n"," conv2d_2 (Conv2D)           (None, 9, 9, 16)          4112      \n","                                                                 \n"," conv2d_transpose (Conv2DTr  (None, 18, 18, 16)        4112      \n"," anspose)                                                        \n","                                                                 \n"," conv2d_transpose_1 (Conv2D  (None, 36, 36, 16)        4112      \n"," Transpose)                                                      \n","                                                                 \n"," conv2d_transpose_2 (Conv2D  (None, 72, 72, 32)        8224      \n"," Transpose)                                                      \n","                                                                 \n"," cropping2d (Cropping2D)     (None, 68, 68, 32)        0         \n","                                                                 \n"," conv2d_transpose_3 (Conv2D  (None, 68, 68, 1)         289       \n"," Transpose)                                                      \n","                                                                 \n","=================================================================\n","Total params: 29601 (115.63 KB)\n","Trainable params: 29601 (115.63 KB)\n","Non-trainable params: 0 (0.00 Byte)\n","______________________________________________________________
…
